checkpoint_critic.pth (torch_old, 292842 bytes, 5 tensors)

fcs1.weight f4 [256, 24]
0.3466796 0.19164853 0.030089866 0.1759353 -0.07979836 -0.20834915 0.00080245174 0.09566689
0.34000745 0.117524795 0.067079976 0.077775046 0.27028662 0.17419507 0.060033243 0.15416694
0.2916916 0.24378939 0.06204671 0.058600318 0.42767626 0.096772164 0.018445736 0.074781775
0.5849334 -0.2545922 -0.042455714 0.048004087 0.057311863 0.088195466 -0.0070578586 -0.033188395
0.45734692 -0.29080018 -0.081545085 -0.10732626 0.1232995 -0.1557804 -0.081939705 -0.115283914
0.47064477 -0.32013753 0.0027632539 -0.047826868 0.14496133 -0.35881415 0.10617265 0.0049965894
0.25014937 -0.06633534 -0.041629706 -0.019113636 -0.029534386 -0.21000732 8.348731e-05 0.019769678
0.16838703 0.03571325 -0.011580871 0.031165326 -0.036594238 -0.19753946 -0.025387308 -0.044065
0.2739991 -0.015744353 0.029955346 -0.08865045 0.05141494 -0.1830798 -0.02791394 -0.041062813
0.12258179 0.07600702 -0.03151514 0.012836044 -0.00033299293 -0.06641951 0.004034553 0.030702839
0.25613624 0.106534354 0.018067315 -0.03695794 -0.034723476 -0.122615494 -0.04280667 0.0069362484
0.19392148 0.057668418 -0.04201101 0.0032503826 0.03986754 -0.3107854 0.015016796 -0.020712955
0.24780942 0.17547902 -0.06864114 0.029884428 0.14073049 -0.18800078 0.0015531034 0.0015218542
0.26547402 0.11256644 -0.054791957 0.026579805 0.016898321 -0.25578022 -0.0052451794 -0.04525166
0.3148399 0.16503249 -0.021177102 0.040706675 -0.14167412 -0.46197993 -0.021569557 0.0315394
0.07207821 0.099637605 -0.0077348356 0.09537027 0.004446741 -0.21756338 -0.0031063098 0.034129467
0.105437875 -0.022171905 -0.032026056 -0.054186158 -0.04196539 -0.274771 0.028827926 -0.08282756
0.24394517 0.06934991 -0.032089815 0.035935465 0.016922379 0.06070319 0.0010023935 0.003465556
0.3459123 -0.040757816 0.00063429447 -0.16019508 -0.17069261 -0.26642957 -0.01288986 -0.14942707
0.38087228 -0.1545376 0.013293811 -0.2071443 -0.06545704 -0.07101454 0.05403084 -0.23231573
0.42655823 -0.1667124 0.006436944 -0.27896982 0.20821673 -0.08193182 0.022819823 -0.24504627
0.20859294 0.13284416 -0.040061757 0.018518211 0.059492607 -0.2306058 -0.004847485 0.052625425
0.15470183 0.192427 -0.010817689 0.012912334 -0.03886913 -0.15279323 -0.031196646 -0.009222614
0.19463912 0.11518636 -0.005788924 -0.005478563 0.035198797 -0.117804684 -0.009371418 -0.031718235
0.00912024 -0.15793225 -0.022667084 0.010025309 0.31218982 0.11214416 0.008858097 -0.0006171578
0.13505207 -0.11544225 0.027067358 0.050929517 -0.07181458 0.22896026 -0.05424144 -0.00839367
0.28812492 -0.037261553 0.0024646653 0.013818333 -0.7268871 -0.5210709 -0.027636787 0.014212422
0.28295895 0.10661905 -0.060071886 0.057412095 0.021867335 -0.38031825 -0.004349457 0.031539366
0.32661414 0.10566373 -0.02467953 0.030573916 0.043851327 -0.4462783 -0.037211116 -0.06397072
0.25974885 0.19431905 -0.046106555 -0.009296374 -0.072795056 -0.27046072 0.017421843 -0.014087112
0.18544497 -0.19602 -0.01211736 -0.073073946 -0.055299357 0.09566439 -0.006387076 -0.13945256
0.1631079 -0.26996186 0.020193333 -0.24981758 -0.11642607 0.18439975 -0.03137077 -0.3227232
00000000: fd7f b13e 833f 443e 067f f63c 6228 343e
00000010: 536d a3bd 7b59 55be a05b 523a 01ed c33d
00000020: 7515 ae3e d7b0 f03d 3a61 893d 8648 9f3d
00000030: 0263 8a3e 3160 323e 6be5 753d f0dd 1d3e
00000040: 9a58 953e eda3 793e b124 7e3d e306 703d
00000050: 62f8 da3e 7c30 c63d 831b 973c 3027 993d
00000060: 32be 153f e959 82be 0be6 2dbd ef9f 443d
00000070: d8bf 6a3d d39f b43d 9c45 e7bb 8ef0 07bd
00000080: 6029 ea3e c3e3 94be 1c01 a7bd dfcd dbbd
00000090: 7384 fc3d e684 1fbe 01d0 a7bd f919 ecbd
000000a0: 5af8 f03e 11e9 a3be b517 353b 1be6 43bd
000000b0: be70 143e 7db6 b7be 0c71 d93d 6eba a33b
000000c0: 9413 803e d3da 87bd e983 2abd 3394 9cbc
000000d0: 19f2 f1bc 290c 57be e915 af38 05f4 a13c
000000e0: a66d 2c3e 0f48 123d b2bd 3dbc 6d4e ff3c
000000f0: d7e3 15bd c947 4abe 0bf9 cfbc 807d 34bd
00000100: 9c49 8c3e 4dfa 80bc ea64 f53c 5e8e b5bd
00000110: 7998 523d 4579 3bbe c6ab e4bc 7b31 28bd
00000120: 290c fb3d 92a9 9b3d 0516 01bd 454e 523c
00000130: 8e95 aeb9 f406 88bd 4934 843b 8584 fb3c
00000140: 4a24 833e af2e da3d e801 943c 3561 17bd
00000150: 343a 0ebd d51d fbbd 0c56 2fbd 7849 e33b
00000160: 5a93 463e b835 6c3d bd13 2cbd 5f04 553b
00000170: 254c 233d 441f 9fbe 0209 763c 37ae a9bc
00000180: c1c1 7d3e c6b0 333e ba93 8cbd 30d0 f43c
00000190: a71b 103e 4783 40be 8191 cb3a f478 c73a
000001a0: 36ec 873e 3c89 e63d 886d 60bd e4bd d93c
000001b0: 596e 8a3c a0f5 82be c1df abbb ce59 39bd
000001c0: b232 a13e 47fe 283e 9a7b adbc 0bbc 263d
000001d0: 0513 11be a288 ecbe a4b2 b0bc 752f 013d
000001e0: be9d 933d cd0e cc3d 8174 fdbb 7d51 c33d
000001f0: f8b5 913b efc8 5ebe 3b93 4bbb 57cb 0b3d
00000200: d0ef d73d dba1 b5bc c12d 03bd 4ef2 5dbd
00000210: e7e3 2bbd c9ae 8cbe 8b28 ec3c 7fa1 a9bd
00000220: c3cc 793e 5307 8e3d 9c70 03bd 1131 133d
00000230: cda0 8a3c e8a3 783d bf62 833a 621e 633b
00000240: 6b1b b13e abf1 26bd c846 263a 2e0a 24be
00000250: 0bca 2ebe 7569 88be fe2f 53bc 6903 19be
00000260: b101 c33e 1b3f 1ebe 49ce 593c a31d 54be
00000270: 570e 86bd 1270 91bd 714f 5d3d 2de4 6dbe
00000280: d765 da3e a8b6 2abe 00ed d23b 22d5 8ebe
00000290: c436 553e dfcb a7bd a3f0 ba3c 69ed 7abe
000002a0: 6399 553e 4d08 083e cc17 24bd 81b3 973c
000002b0: 85ae 733d ed23 6cbe a7d7 9ebb c28d 573d
000002c0: 286a 1e3e 950b 453e ad3c 31bc 418e 533c
000002d0: 3d35 1fbd d475 1cbe 1c90 ffbc 721a 17bc
000002e0: 7a4f 473e d4e6 eb3d 04b1 bdbb 8485 b3bb
000002f0: 9d2c 103d 9543 f1bd 938a 19bc fbea 01bd
00000300: 0f6d 153c feb8 21be 52b0 b9bc 3241 243c
00000310: 58d7 9f3e d6ab e53d 8d21 113c c2c8 21ba
00000320: 174b 0a3e fd6c ecbd 5dbc dd3c 789b 503d
00000330: 8613 93bd 8f74 6a3e 462c 5ebd 9b85 09bc
00000340: 1c85 933e 929f 18bd 3986 213b 4a66 623c
00000350: 4615 3abf e764 05bf 8b66 e2bc 38db 683c
00000360: ffdf 903e 175b da3d f00d 76bd f228 6b3d
00000370: 2023 b33c 13b9 c2be e485 8ebb 6c2f 013d
00000380: f839 a73e 3a66 d83d ba2c cabc 2676 fa3c
00000390: 739d 333d 977e e4be af6a 18bd 1503 83bd
000003a0: cdfd 843e 93fb 463e 3ada 3cbd d24f 18bc
000003b0: 9315 95bd d479 8abe 41b8 8e3c a1cd 66bc
000003c0: 49e5 3d3e 78b9 48be e487 46bc cba7 95bd
000003d0: 9481 62bd b1eb c33d ad4a d1bb a7cc 0ebe
000003e0: c205 273e 7138 8abe 7d6c a53c 2ed0 7fbe
000003f0: cb70 eebd 4ad3 3c3e a37e 00bd fa3b a5be

fcs1.bias f4 [256]
-0.34590822 -0.338345 -0.30353826 -0.055759512 -0.23482516 -0.27727026 -0.050503314 -0.04792692
-0.06491422 -0.09796012 -0.23883487 -0.1396462 -0.5494844 -0.09475371 -0.5894042 -0.007856877
-0.4023904 -0.13591476 0.024898123 -0.014933036 -0.34963056 -0.42945495 -0.07089539 -0.09461688
0.029981118 -0.3153416 0.25112328 -0.45698726 -0.22275753 -0.031207006 -0.1699603 -0.1592978
-0.20975134 -0.5245637 -0.1568058 -0.16876353 -0.4571673 0.17430241 0.029351242 -0.3237496
-0.30714357 -0.49345252 -0.2621069 -0.08820152 -0.07342584 0.086283766 0.15167765 -0.35211444
-0.5524377 -0.07955696 -0.14571793 -0.24566874 -0.078446515 -0.39558676 -0.31871495 -0.5259512
-0.40818813 -0.44794837 0.055659946 -0.036923446 -0.07781071 -0.068685986 0.093875706 0.015384373
-0.08589279 -0.5822215 -0.16097929 -0.18955603 0.015331095 -0.030404562 -0.28867474 -0.033385403
-0.37828532 -0.41631877 -0.38672727 -0.26391706 -0.114633195 -0.5686679 -0.0484434 -0.38997522
-0.38329792 -0.2229342 0.09255414 -0.0007188994 0.039357107 -0.24371512 0.2766007 0.02963639
-0.12498434 -0.116807476 -0.09285699 -0.3222699 -0.17011699 -0.1977194 -0.29139033 -0.17176141
-0.42768162 -0.2318099 -0.19675659 -0.118938714 -0.39317825 -0.42670804 -0.21455984 -0.15923916
-0.009176032 0.07003654 -0.30177966 -0.12215119 -0.43378052 -0.34516338 -0.10574393 -0.13871889
-0.11764904 0.11823432 0.06285268 -0.14189805 0.1676204 -0.1382131 -0.08707228 -0.29073128
-0.2723672 0.1812883 0.21619973 -0.13066518 -0.051622048 -0.20891921 -0.24346109 -0.22956719
-0.28820026 -0.3723359 -0.11176836 -0.41192126 -0.17865518 0.04935011 -0.5153481 -0.11245618
-0.47353297 -0.35295442 -0.05127113 -0.50224596 -0.15046434 -0.33721063 -0.09330162 -0.1164017
0.031064313 -0.18330683 -0.18809119 -0.40952873 -0.37228468 -0.20654403 -0.13213556 -0.13878813
-0.27433395 0.09951215 0.410975 -0.4357601 -0.14329241 -0.5783059 -0.38777718 -0.108014055
-0.00703057 -0.10055103 0.15518302 -0.33076802 -0.2536282 -0.3264564 -0.31265593 -0.4780655
-0.033413198 -0.44390985 -0.40689027 -0.49898788 -0.4757847 0.14612663 -0.14542843 -0.32911447
-0.70135957 -0.21832465 -0.12113295 -0.31056553 -0.24948472 -0.07716166 -0.40475583 -0.07091604
-0.33521852 -0.38642004 -0.19859314 -0.4951262 -0.40744486 -0.3736784 -0.21357816 -0.18192382
-0.0038749564 -0.3407683 0.44771817 -0.27600285 -0.28646773 -0.29129353 -0.09509957 -0.09612576
-0.021718621 0.13048823 0.038365148 -0.09845583 -0.25335145 -0.10381936 -0.3027917 0.037959974
0.017353147 -0.14824836 -0.194461 -0.06996633 -0.34079203 -0.28378767 -0.6632163 -0.4164034
-0.21793242 -0.24122165 -0.2653764 -0.33518526 -0.22318707 0.12436219 0.4611555 -0.056873843
0.055486538 -0.26497984 -0.31995973 0.104975104 -0.1540483 -0.15785445 -0.0031794482 -0.037865624
-0.07794434 -0.08344755 -0.28153443 0.074046426 -0.17462468 -0.3232627 -0.7142561 -0.14041235
0.16714777 0.025358938 -0.09464072 -0.10567622 -0.23695251 -0.35223496 -0.2197447 -0.09784593
-0.18254314 0.006098032 -0.16302478 -0.24368466 0.13171789 -0.70443803 -0.24316832 -0.011847044
00000000: e21a b1be 8e3b adbe 5e69 9bbe 1664 64bd
00000010: 0276 70be 5ef6 8dbe 90dc 4ebd 054f 44bd
00000020: bff1 84bd 519f c8bd 2191 74be 6aff 0ebe
00000030: 02ab 0cbf 3c0e c2bd 32e3 16bf 21ba 00bc
00000040: 1d06 cebe 3d2d 0bbe 26f7 cb3c b1a9 74bc
00000050: c702 b3be 85e1 dbbe 9a31 91bd 7fc6 c1bd
00000060: f69a f53c 7474 a1be 3b93 803e 3cfa e9be
00000070: 8d1a 64be d6a5 ffbc 130a 2ebe f61e 23be
00000080: 0ec9 56be cf49 06bf b391 20be 59d0 2cbe
00000090: d511 eabe 557c 323e 0472 f03c 82c2 a5be
000000a0: ec41 9dbe cfa5 fcbe e032 86be 00a3 b4bd
000000b0: 4960 96bd 8bb5 b03d 6351 1b3e 5848 b4be
000000c0: 8f6c 0dbf c2ee a2bd 1537 15be 9690 7bbe
000000d0: 91a8 a0bd 598a cabe 9b2e a3be bda4 06bf
000000e0: 09fe d0be 7d59 e5be affb 633d 0a3d 17bd
000000f0: 395b 9fbd 3dab 8cbd e841 c03d bd0e 7c3c
00000100: 8fe8 afbd 780c 15bf c1d7 24be fa1a 42be
00000110: 462f 7b3c fd12 f9bc 2dcd 93be 22bf 08bd
00000120: 9dae c1be bc27 d5be 1e01 c6be 2320 87be
00000130: cfc4 eabd 3894 11bf 966c 46bd d5aa c7be
00000140: a03f c4be dd48 64be 068d bd3d 8674 3cba
00000150: eb34 213d 7590 79be 9b9e 8d3e 04c8 f23c
00000160: caf7 ffbd c238 efbd ce2b bebd 8f00 a5be
00000170: 2633 2ebe f476 4abe 1d31 95be 39e2 2fbe
00000180: 16f9 dabe 935f 6dbe 8f7a 49be 2496 f3bd
00000190: a94e c9be 7a79 dabe 93b5 5bbe 970f 23be
000001a0: 1157 16bc 516f 8f3d dd82 9abe 672a fabd
000001b0: 7b18 debe 41b9 b0be 4690 d8bd 530c 0ebe
000001c0: fbf1 f0bd d624 f23d e8b8 803d b94d 11be
000001d0: afa4 2b3e bc87 0dbe f452 b2bd bbda 94be
000001e0: b773 8bbe a4a3 393e 7663 5d3e 18cd 05be
000001f0: a471 53bd ebee 55be dd4d 79be a913 6bbe
00000200: fc8e 93be d0a2 bebe cfe6 e4bd 58e7 d2be
00000210: 62f1 36be 5723 4a3d daed 03bf 6d4f e6bd
00000220: ea72 f2be 71b6 b4be ad01 52bd 3193 00bf
00000230: 5313 1abe dfa6 acbe eb14 bfbd 0464 eebd
00000240: 967a fe3c c9b4 3bbe fa9a 40be c0ad d1be
00000250: 199c bebe 4780 53be 8b4e 07be 7a1e 0ebe
00000260: 8075 8cbe 07cd cb3d 516b d23e f31b dfbe
00000270: 3fbb 12be db0b 14bf bb8a c6be 7936 ddbd
00000280: b260 e6bb b3ed cdbd 4ce8 1e3e 6d5a a9be
00000290: 8edb 81be 4b25 a7be 7014 a0be 00c5 f4be
000002a0: 47dc 08bd 2748 e3be ec53 d0be 577b ffbe
000002b0: 0d9a f3be 38a2 153e 31eb 14be b181 a8be
000002c0: 4d8c 33bf 7f90 5fbe 8d14 f8bd 7202 9fbe
000002d0: ec78 7fbe ef06 9ebd 283c cfbe 6e3c 91bd
000002e0: c3a1 abbe d9d8 c5be 005c 4bbe 2e81 fdbe
000002f0: 9d9c d0be c652 bfbe 3cb4 5abe 3d4a 3abe
00000300: fbf2 7dbb 2f79 aebe 513b e53e 3f50 8dbe
00000310: e6ab 92be 6d24 95be 90c3 c2bd 95dd c4bd
00000320: 40eb b1bc b59e 053e c624 1d3d 36a3 c9bd
00000330: 48b7 81be 3f9f d4bd 8407 9bbe eb7b 1b3d
00000340: 3028 8e3c 6bce 17be c920 47be 824a 8fbd
00000350: 4b7c aebe 9e4c 91be 8bc8 29bf d432 d5be
00000360: ad29 5fbe cf02 77be 6adf 87be 679d abbe
00000370: 278b 64be 9bb1 fe3d 931c ec3e 8cf4 68bd
00000380: da45 633d 70ab 87be c3d1 a3be 30fd d63d
00000390: d6be 1dbe 99a4 21be 4a5e 50bb fc18 1bbd
000003a0: 48a1 9fbd 8de6 aabd 4825 90be a7a5 973d
000003b0: d0d0 32be b082 a5be 7dd9 36bf 41c8 0fbe
000003c0: c928 2b3e 8cbd cf3c fed2 c1bd c66c d8bd
000003d0: aea3 72be 2458 b4be c104 61be 7263 c8bd
000003e0: 97ec 3abe 00d2 c73b f8ef 26be 7988 79be
000003f0: 0ee1 063e 0d56 34bf 1e01 79be 1b1a 42bc

fc2.weight f4 [256, 258]
0.0008313081 -0.06440308 -0.044359062 -0.06505264 -0.007235827 0.017199026 0.0020133166 -0.057679325
-0.03273924 -0.033937126 -0.021121928 -0.019231047 -0.027625442 -0.09256839 -0.0012417614 -0.049751885
0.024740193 -0.027935863 -0.0021971914 0.00205929 -0.0071488284 -0.009747421 -0.015943514 0.013926705
-0.03074875 -0.047145728 0.016073372 -0.102724 0.0602974 -0.020013785 -0.0015881639 -0.0037209094
0.0027191786 0.0034085293 -0.1158277 -0.0031550988 -0.012023441 -0.061162636 -0.061613876 0.0391404
-0.14505011 -0.09453253 0.02456274 -0.0011188859 0.020305907 -0.017535679 0.04134292 -0.016755598
0.023670586 0.033105727 -0.033195853 -0.07214314 0.006547728 0.018659333 -0.007987073 -0.0018888921
-0.06593908 -0.027359972 -0.032215882 -0.012024985 -0.083484136 -0.01364752 0.0060425173 -0.01956056
-0.086437896 -0.024553634 -0.07661104 -0.027292099 -0.006133406 -0.028961701 -0.075540155 0.013380969
-0.017118508 -0.011564445 -0.05681334 -0.0035808731 0.018046388 -0.01934454 -0.019705374 -0.040840477
-0.019330373 0.021691633 -0.07012556 0.013167883 0.021809 0.04351527 -0.017922703 -0.0041210293
-0.077616535 -0.02238641 -0.024612356 -0.07366908 -0.031774618 0.015296397 -0.039527744 -0.03192607
0.00426351 -0.07374371 -0.049389064 -0.07058985 0.0060925083 -0.0887444 -0.00813614 -0.04737018
-0.020755373 -0.052708942 0.02367982 0.00040688945 -0.014084317 -0.07262619 0.017204173 -0.07481137
0.0549188 -0.066007525 -0.047939863 0.02918015 -0.0920997 -0.071166016 0.022102641 -0.05209837
0.020987144 -0.06923238 -0.009393536 0.07857521 -0.05516441 -0.07175117 -0.12413516 -0.029557891
-0.013173562 -0.05900968 -0.043493725 -0.08306384 -0.006118699 -0.019785719 -0.052097462 0.047895968
-0.022203151 0.06111687 0.005958236 0.008347297 -0.019604087 -0.072261855 -0.014063269 -0.031867187
-0.065069176 -0.027742328 0.00016293657 -0.034241803 -0.075070694 0.045875862 -0.04442194 0.019251436
-0.08955919 -0.028630888 -0.035344318 0.041609354 -0.06894039 -0.045097344 -0.023606291 -0.009146102
-0.05667175 -0.021185298 -0.058273774 0.042778354 -0.05989109 0.00921683 -0.069119275 -0.013917553
0.037805974 -0.05688631 -0.032206085 0.025785696 -0.0656542 0.025173087 -0.010866034 -0.06721107
-0.061772857 -0.021836128 -0.077957496 0.04350064 -0.07106331 -0.018463729 0.04079885 0.0086709475
0.015989587 -0.02893271 -0.0408715 -0.0018868244 -0.052611973 -0.031229183 0.014802529 0.033331923
0.029172875 0.011293671 -0.1195104 -0.005860519 -0.024146808 0.040105633 -0.02133977 -0.054425426
0.04662066 0.033300214 0.027548043 -0.055566248 0.03780385 -0.028487345 0.009305116 -0.012648348
-0.010936299 -0.00711854 0.008460547 -0.08076597 -0.052827034 -0.0054926528 -0.03959029 0.009698641
-0.023254689 0.007439796 0.035946827 0.016368799 0.024447422 -0.00036611114 -0.07355316 -0.046360042
-0.082874775 -0.028844688 -0.06649936 -0.05652784 0.04227937 -0.054073583 0.03780125 0.005382289
-0.052963313 -0.09121386 -0.026178971 0.028229738 -0.099318124 0.014267472 0.029745568 -0.030713852
0.055255745 -0.016817402 0.02537873 0.054239884 -0.0058237226 0.031690247 -0.0039349836 -0.03806283
-0.06206779 -0.08194592 -0.01668687 -0.08890608 -0.013376457 -0.06555226 -0.055753473 -0.07230021
00000000: 24ec 593a c3e5 83bd d9b1 35bd 523a 85bd
00000010: 841a edbb f9e4 8c3c d9f1 033b 2841 6cbd
00000020: 9519 06bd a801 0bbd e507 adbc 6e8a 9dbc
00000030: c04e e2bc 7f94 bdbd 99c2 a2ba a2c8 4bbd
00000040: f2ab ca3c c0d9 e4bc c1fe 0fbb 27f5 063b
00000050: b840 eabb a6b3 1fbc f99b 82bc d62c 643c
00000060: cde4 fbbc e11b 41bd 4eac 833c f660 d2bd
00000070: 68fa 763d f3f3 a3bc f029 d0ba 80da 73bb
00000080: 3f34 323b a261 5f3b 1337 edbd c6c5 4ebb
00000090: f7fd 44bc ac85 7abd d55e 7cbd af51 203d
000000a0: 0488 14be 459a c1bd cd37 c93c 95a7 92ba
000000b0: 9358 a63c fca6 8fbc 3257 293d 0943 89bc
000000c0: d1e8 c13c df99 073d 60f8 07bd c8bf 93bd
000000d0: 538e d63b 75db 983c 36dc 02bc b494 f7ba
000000e0: 120b 87bd 0522 e0bc cdf4 03bd 7104 45bc
000000f0: bbf9 aabd d999 5fbc 4f00 c63b 783d a0bc
00000100: 5a06 b1bd b424 c9bc 40e6 9cbd ae93 dfbc
00000110: bdfa c8bb 1741 edbc ccb4 9abd da3b 5b3c
00000120: 1d3c 8cbc cc78 3dbc 1bb5 68bd 15ad 6abb
00000130: 05d6 933c 7178 9ebc 2a6d a1bc 5848 27bd
00000140: bb5a 9ebc a7b2 b13c fd9d 8fbd 1bbe 573c
00000150: caa8 b23c 113d 323d a2d2 92bc b309 87bb
00000160: 6bf5 9ebd b463 b7bc da9f c9bc d1df 96bd
00000170: 1a26 02bd bd9d 7a3c d8e7 21bd e9c4 02bd
00000180: eab4 8b3b f106 97bd 304c 4abd 6991 90bd
00000190: aaa3 c73b a0bf b5bd 724d 05bc 3c07 42bd
000001a0: 2c07 aabc 55e5 57bd 2ffc c13c c753 d539
000001b0: e8c1 66bc 0abd 94bd c4ef 8c3c b436 99bd
000001c0: 89f2 603d f42e 87bd 975c 44bd 360b ef3c
000001d0: c49e bcbd 7dbf 91bd 9910 b53c 1a65 55bd
000001e0: 3bed ab3c b5c9 8dbd 58e7 19bc 0aec a03d
000001f0: 14f4 61bd 47f2 92bd 933a febd 6423 f2bc
00000200: ecd5 57bc 22b4 71bd 7a26 32bd 601d aabd
00000210: 5e7f c8bb a915 a2bc 2664 55bd 902e 443d
00000220: 62e3 b5bc af55 7a3d 4e3d c33b 1ac3 083c
00000230: c098 a0bc 06fe 93bd a069 66bc 2b87 02bd
00000240: fd42 85bd e143 e3bc f4d9 2a39 2241 0cbd
00000250: aabe 99bd 54e8 3b3d c8f3 35bd 30b5 9d3c
00000260: cf6a b7bd 538b eabc 34c5 10bd 926e 2a3d
00000270: 9f30 8dbd feb7 38bd fb61 c1bc 88d9 15bc
00000280: a320 68bd ca8c adbc 7bb0 6ebd 5b38 2f3d
00000290: 5c50 75bd 3002 173c 688e 8dbd 7306 64bc
000002a0: 70da 1a3d 9f01 69bd 87ea 03bd 863c d33c
000002b0: b675 86bd ca37 ce3c 7307 32bc f5a5 89bd
000002c0: 8905 7dbd aee1 b2bc 2ea8 9fbd ba2d 323d
000002d0: a489 91bd 3f41 97bc b21c 273d 9710 0e3c
000002e0: 98fc 823c 4a04 edbc e068 27bd 524f f7ba
000002f0: a77f 57bd 58d4 ffbc 4e86 723c 0e87 083d
00000300: f4fb ee3c 1709 393c dec1 f4bd 9909 c0bb
00000310: 87cf c5bc ce45 243d bed0 aebc 32ed 5ebd
00000320: 4ef5 3e3d ce65 083d 6fac e13c 6f99 63bd
00000330: 36d8 1a3d 4b5e e9bc 7c74 183c 043b 4fbc
00000340: 2a2e 33bc a442 e9bb 1b9e 0a3c a168 a5bd
00000350: 2961 58bd b6fb b3bb 6e29 22bd 0ce7 1e3c
00000360: 9e80 bebc 88c9 f33b fb3c 133d dc17 863c
00000370: f645 c83c 9bf2 bfb9 0aa3 96bd 07e4 3dbd
00000380: 40ba a9bd b24b ecbc d130 88bd bd89 67bd
00000390: 222d 2d3d 437c 5dbd 7cd5 1a3d ea5d b03b
000003a0: 0ff0 58bd 55ce babd 4875 d6bc 0d42 e73c
000003b0: 4d67 cbbd 1dc2 693c faac f33c 9e9b fbbc
000003c0: d953 623d a6c4 89bc 0ee7 cf3c a42a 5e3d
000003d0: edd4 bebb a2cd 013d 09f1 80bb c5e7 1bbd
000003e0: cc3a 7ebd 43d3 a7bd e7b2 88bc 6414 b6bd
000003f0: ed28 5bbc 4340 86bd c15d 64bd 2212 94bd

fc2.bias f4 [256]
-0.048678726 -0.014620809 -0.090088986 0.025277305 -0.1024277 0.00048674675 -0.077376895 -0.066442885
0.04670069 -0.06882736 -0.13087235 -0.038524784 -0.118622825 -0.04012904 -0.044421487 -0.082851455
-0.04284929 -0.09002786 -0.09114396 -0.09481625 -0.034322813 -0.1251481 -0.022409437 -0.10643112
-0.069406636 -0.08518237 0.0014531738 -0.06311697 -0.08092799 -0.05551261 -0.20315664 -0.22950706
-0.0328419 -0.101668194 0.15248068 -0.06970478 -0.07312512 0.16035692 -0.06958918 -0.06638827
-0.15255025 -0.06795408 -0.032400765 -0.101751186 0.018475017 -0.033666573 -0.032729987 0.0044446713
-0.049128354 0.022140553 -0.043026976 -0.14152941 -0.049835686 -0.07041912 -0.09256667 0.014380826
-0.14570093 -0.07294269 0.01737411 -0.012551523 -0.017063998 -0.04288071 -0.093147926 -0.052061304
0.015627148 -0.14694266 -0.1843673 -0.073122695 0.034679245 0.009913923 -0.060144283 -0.1409784
-0.11496845 -0.07294127 -0.031117292 0.31014308 -0.019915627 -0.09453126 0.360789 -0.10744336
-0.15694913 0.06424058 -0.060464665 0.17951122 -0.025901848 0.036444016 -0.029017465 -0.052350547
0.0032494585 -0.019759879 0.0024076018 -0.10619597 -0.09738906 0.010660193 0.04656407 -0.08685199
-0.11343165 -0.040834043 -0.063863136 -0.055572588 -0.04299605 -0.008406396 0.15789302 -0.112116426
-0.017237587 -0.12662782 -0.09538182 -0.049766667 -0.12099473 -0.015739894 0.11905346 -0.02297788
-0.091848865 -0.19836013 -0.11660808 -0.063450225 0.0033122117 -0.065464705 -0.026948212 -0.11384119
-0.11779308 -0.0018211659 -0.030035738 -0.028302874 -0.033904303 -0.02108519 -0.079348825 -0.02140549
-0.08716784 -0.09753875 -0.10071167 -0.14999178 -0.007492751 -0.10189971 -0.033946153 -0.03496074
-5.68875e-05 -0.11434282 -0.06407731 0.0159848 0.32791534 -0.09248704 -0.044919796 -0.094109595
-0.035400666 -0.011055098 -0.099518895 -0.07830933 -0.13103996 -0.116063125 -0.061293583 -0.09212173
0.16927929 -0.025079869 -0.06413226 -0.06683112 -0.060930237 0.01807497 -0.09748656 -0.013778837
-0.01351586 -0.23624395 -0.05646549 0.04595946 -0.070127085 -0.098999895 -0.084829256 -0.13026273
0.021005446 -0.0078595 -0.048978984 -0.18400325 -0.0303666 -0.12009505 -0.060181204 -0.0857468
0.004784163 -0.019755933 -0.050585147 -0.13236295 -0.06281796 -0.02667278 -0.048601713 -0.08662364
-0.04101122 0.01711834 -0.0070946394 -0.078214966 -0.084207036 -0.030817425 0.014140517 -0.028983757
-0.18278876 -0.035722382 -0.0795523 -0.07631052 -0.09818987 -0.009581363 -0.086278655 0.17976141
-0.06470638 -0.04012559 -0.06228509 -0.005100627 -0.09592584 -0.02770929 0.021614086 -0.09336173
-0.00030364815 -0.023416042 0.033615507 0.12157717 -0.13315903 -0.08581966 -0.09945609 -0.06816109
0.013176005 -0.12878025 -0.088232346 0.021889912 -0.037226357 -0.12098179 0.51466036 -0.032072503
-0.0063953456 -0.028977405 -0.06332943 -0.06781773 -0.02246215 0.06307284 -0.044840667 -0.0841081
-0.054081958 0.0161499 -0.11802156 -0.05379083 -0.08339892 -0.060086094 -0.058658816 -0.084095135
-0.05154735 -0.095043056 -0.14802736 -0.11712243 -0.016607884 -0.015082377 -0.011242189 -0.1225459
-0.044689108 -0.042288944 -0.12953238 -0.007298537 -0.038469274 -0.03790928 -0.28272396 -0.090178676
00000000: 5863 47bd 1e8c 6fbc 9380 b8bd 5a12 cf3c
00000010: 9dc5 d1bd 0b32 ff39 c777 9ebd 3513 88bd
00000020: 3949 3f3d 5cf5 8cbd 6703 06be 2acc 1dbd
00000030: 86f0 f2bd 595e 24bd 4ef3 35bd 06ae a9bd
00000040: bd82 2fbd 8760 b8bd afa9 babd 062f c2bd
00000050: 1496 0cbd d326 00be ff93 b7bc 8ff8 d9bd
00000060: 1125 8ebd 1874 aebd 6c78 be3a 7843 81bd
00000070: 93bd a5bd 3161 63bd 4b08 50be e603 6bbe
00000080: 3a85 06bd 6a37 d0bd e523 1c3e 61c1 8ebd
00000090: 9fc2 95bd 9b34 243e c684 8ebd 93f6 87bd
000000a0: 2236 1cbe 822b 8bbd aab6 04bd ed62 d0bd
000000b0: eb58 973c f6e5 09bd e10f 06bd 9ba4 913b
000000c0: d03a 49bd 1b60 b53c 0e3d 30bd 16ed 10be
000000d0: 8120 4cbd e637 90bd 9893 bdbd 8e9d 6b3c
000000e0: a032 15be fa62 95bd 2654 8e3c e7a4 4dbc
000000f0: ccc9 8bbc afa3 2fbd 57c4 bebd 3c3e 55bd
00000100: 8104 803c 2378 16be c8ca 3cbe 5ac1 95bd
00000110: d30b 0e3d 026e 223c da59 76bd a45c 10be
00000120: 9474 ebbd 3c62 95bd b1e9 febc 13cb 9e3e
00000130: 1926 a3bc 9b99 c1bd 56b9 b83e 440b dcbd
00000140: 46b7 20be 9190 833d cca9 77bd cad1 373e
00000150: 1d30 d4bc 5246 153d 09b6 edbc 876d 56bd
00000160: def4 543b 78df a1bc dbc8 1d3b 467d d9bd
00000170: ea73 c7bd 17a8 2e3c f7b9 3e3d 75df b1bd
00000180: da4e e8bd 9941 27bd adca 82bd 15a0 63bd
00000190: a01c 30bd fbba 09bc b5ae 213e 4c9d e5bd
000001a0: d735 8dbc b9aa 01be 8b57 c3bd 22d8 4bbd
000001b0: 16cc f7bd f3f0 80bc 4dd2 f33d 1b3c bcbc
000001c0: 421b bcbd eb1e 4bbe 38d0 eebd 31f2 81bd
000001d0: b111 593b 5c12 86bd 7fc2 dcbc 9225 e9bd
000001e0: 803d f1bd 30b4 eeba 820d f6bc 6edb e7bc
000001f0: 3ddf 0abd d9ba acbc a381 a2bd 915a afbc
00000200: 0d85 b2bd 65c2 c7bd ec41 cebd 7297 19be
00000210: c085 f5bb ccb0 d0bd 1f0b 0bbd fe32 0fbd
00000220: 7d9a 6eb8 922c eabd f73a 83bd 8ef2 823c
00000230: 85e4 a73e d869 bdbd d2fd 37bd 88bc c0bd
00000240: 4a00 11bd 7120 35bc 90d0 cbbd a460 a0bd
00000250: 572f 06be 81b2 edbd fb0e 7bbd 51aa bcbd
00000260: 8d57 2d3e 4c74 cdbc c657 83bd c1de 88bd
00000270: fc91 79bd f611 943c 09a7 c7bd a2c0 61bc
00000280: a071 5dbc efe9 71be 5c48 67bd fd3f 3c3d
00000290: ca9e 8fbd 75c0 cabd f6ba adbd 9863 05be
000002a0: 9d13 ac3c 22c5 00bc 309e 48bd 596b 3cbe
000002b0: 60c3 f8bc 65f4 f5bd 9180 76bd 059c afbd
000002c0: 78c4 9c3b 32d7 a1bc 5f32 4fbd 278a 07be
000002d0: b4a6 80bd e080 dabc 9712 47bd bc67 b1bd
000002e0: 62fb 27bd c33b 8c3c 267a e8bb 2b2f a0bd
000002f0: bd74 acbd d374 fcbc a1ad 673c 586f edbc
00000300: fa2c 3bbe a251 12bd 51ec a2bd b148 9cbd
00000310: c517 c9bd 26fb 1cbc ddb2 b0bd 6013 383e
00000320: c784 84bd bb5a 24bd a71e 7fbd 2923 a7bb
00000330: c474 c4bd 98fe e2bc 0610 b13c 6f34 bfbd
00000340: f732 9fb9 00d3 bfbc 6ab0 093d 74fd f83d
00000350: d75a 08be 38c2 afbd a2af cbbd 0b98 8bbd
00000360: 2ce0 573c f8de 03be 29b3 b4bd 7952 b33c
00000370: aa7a 18bd 4dc5 f7bd c8c0 033f 755e 03bd
00000380: 0c90 d1bb 0662 edbc dcb2 81bd 06e4 8abd
00000390: 8b02 b8bc 552c 813d d9aa 37bd de40 acbd
000003a0: 0b85 5dbd cc4c 843c 4ab5 f1bd c653 5cbd
000003b0: 0ecd aabd d61c 76bd 3a44 70bd 123a acbd
000003c0: 5023 53bd efa5 c2bd 7c94 17be e2dd efbd
000003d0: 420d 88bc 131c 77bc 2931 38bc 58f9 fabd
000003e0: ed0b 37bd 2c37 2dbd 23a4 04be 9128 efbb
000003f0: f591 1dbd c346 1bbd 32c1 90be 99af b8bd

fc3.weight f4 [1, 256]
0.030728623 0.015028612 -0.0034318024 0.013988291 0.00014350054 -0.026142357 -0.011006941 0.022018453
-0.04640361 0.019755136 -0.000843759 0.023255045 0.010492778 0.004920145 -0.017093545 0.0054926467
-0.024113027 0.064619675 -0.025451431 -0.04815851 0.025559308 0.015120878 -0.0014850658 -0.0066324407
0.028105909 -0.0017707697 0.0067216684 0.00059081055 -0.022882396 -0.011050267 0.027976567 0.034674324
0.0011246714 0.0038278066 -0.03266628 -0.015542581 -0.0032100996 -0.1630571 0.011816614 -0.005804105
0.042511605 -0.028504174 -0.022106878 0.020237235 0.002880241 -0.025576755 0.0048798947 0.0060664164
0.00469631 0.0070657306 0.0016927334 0.009241017 0.010165751 -0.01591792 -0.016883297 0.05781738
-0.0033106944 -0.02015921 -0.017777512 -0.027976537 0.031041339 -0.007097624 0.010783625 0.0096845105
-0.0076840483 -0.008749954 -0.06106266 -0.03088262 -0.031064034 -0.027573213 0.015552715 -0.023326037
-0.015185447 0.0065698465 -0.008819031 0.02830876 0.0013298533 0.00017036668 0.023106433 -0.004693544
-0.018119412 -0.027822785 0.036593355 -0.03390198 -0.010963291 -0.037517942 0.0146217765 0.0073109935
0.030441927 0.018367311 0.0034567316 -0.02288224 0.024610048 0.011630188 0.033559065 -0.012835656
0.0050215684 0.0015387808 -0.013461563 0.012456457 -0.0017422457 0.008078836 0.037523314 0.026983054
-0.009437002 0.00046596673 -0.015011763 0.0025917357 0.031865504 -0.011586953 0.036946386 -0.028356075
-0.0014352801 -0.094100155 0.07244783 0.008319082 0.013347345 -0.026546411 0.0112154195 -0.02282686
-0.014561439 0.03016567 -0.02617937 -0.04109743 0.0069580767 -0.003931878 0.01617639 -0.004401112
-0.016990865 -0.012829163 -0.024136914 -0.025083028 0.0020974465 -0.0052541173 0.012541511 0.0064672087
0.014509759 0.010622252 -0.010618327 0.016975699 0.02828407 -0.007272046 -0.0074923374 -0.0067880847
-0.0016758406 -0.018521264 0.018433949 0.013441175 -0.011372153 0.009616867 0.0037536812 -0.017245917
0.027999109 0.020162133 -0.021603601 0.024070492 0.029373122 0.007823132 0.019259728 -0.028226843
0.010484402 -0.027782658 0.026195878 0.00010557347 0.009794331 0.014232705 -0.02002552 0.0026352506
-0.011964991 0.007564116 0.0064595793 -0.036758058 -0.003242663 0.010242331 0.0028224697 -0.0032074302
-0.0013238337 -0.009229433 0.0029485766 0.010662157 0.030900463 0.0062741656 -0.019122843 0.022540731
0.017606454 0.0020489155 0.0051013837 -0.036969848 -0.005125125 -0.0026366732 -0.013455384 -0.027245266
-0.10435085 -0.01811578 0.02346738 -0.013931235 0.013153955 0.031274207 0.035842996 0.045121424
-0.0062698745 0.002132256 0.008044682 0.030668024 0.018849818 0.009602961 -0.03481093 -0.024238098
-0.014589321 -0.10469734 0.059879515 0.014501159 0.01752564 -0.004162343 -0.00685227 0.022925625
-0.018867875 0.0105822915 -0.01829571 -0.052831344 0.021513557 -0.017647725 0.026103895 0.02827955
0.001347673 0.0015971714 0.002058981 -0.005652849 -0.041025165 -0.047624845 0.00024666724 0.009579306
-0.002564691 -0.015967473 -0.031379197 0.024035882 0.0017323028 0.019585434 -0.00022953625 -0.0003055351
-0.027885346 -0.0016687312 -0.09419015 0.015622477 0.02423866 -0.012216012 0.00706592 -0.044049717
-0.052331846 -0.007589431 -0.050807647 0.008121407 0.020767136 -0.0021656503 0.019372389 -0.007860511
00000000: 98ba fb3c 913a 763c 17e8 60bb 252f 653c
00000010: a278 1639 7f28 d6bc 7556 34bc 0b60 b43c
00000020: b611 3ebd 86d5 a13c b52f 5dba 5d81 be3c
00000030: e7e9 2b3c 2b39 a13b c307 8cbc a9fb b33b
00000040: af88 c5bc 5257 843d 857f d0bc dc41 45bd
00000050: c161 d13c 8fbd 773c 8aa6 c2ba f254 d9bb
00000060: 5d3e e63c 2c19 e8ba 7141 dc3b a0e0 1a3a
00000070: dd73 bbbc 2e0c 35bc 1d2f e53c aa06 0e3d
00000080: b669 933a f0db 7a3b 14cd 05bd 4fa6 7ebc
00000090: 8960 52bb 71f8 26be 799a 413c 5d30 bebb
000000a0: a620 2e3d 9681 e9bc 7c19 b5bc 8fc8 a53c
000000b0: 6dc2 3c3b 5886 d1bc 86e7 9f3b cac8 c63b
000000c0: 81e3 993b a587 e73b b5de dd3a a267 173c
000000d0: 408e 263c 4c66 82bc d74e 8abc ebd1 6c3d
000000e0: 3cf8 58bb ed24 a5bc 25a2 91bc 0d2f e5bc
000000f0: 684a fe3c 2f93 e8bb cdad 303c c8ab 1e3c
00000100: 78ca fbbb f85b 0fbc d71c 7abd 8cfd fcbc
00000110: 007a febc 38e1 e1bc d1d0 7e3c 3f16 bfbc
00000120: 62cc 78bc de47 d73b b27d 10bc c6e7 e73c
00000130: 794e ae3a 75a4 3239 b449 bd3c 4dcc 99bb
00000140: 296f 94bc 9cec e3bc eae2 153d cddc 0abd
00000150: 609f 33bc 6aac 19bd 2d90 6f3c 0f91 ef3b
00000160: 5961 f93c 0b77 963c 558a 623b 8973 bbbc
00000170: 039b c93c 8b8c 3e3c 3b75 093d a54c 52bc
00000180: f88b a43b eab0 c93a e38d 5cbc 2b16 4c3c
00000190: 115c e4ba 185d 043c 0cb2 193d 910b dd3c
000001a0: a89d 1abc ff4c f439 e6f3 75bc 1cda 293b
000001b0: 6785 023d 34d7 3dbc 1855 173d 004b e8bc
000001c0: 0220 bcba 95b7 c0bd 875f 943d c24c 083c
000001d0: d3ae 5a3c dc77 d9bc e1c0 373c 65ff babc
000001e0: 1a93 6ebc ff1d f73c 1e76 d6bc c755 28bd
000001f0: 9400 e43b fcd6 80bb 5984 843c 3437 90bb
00000200: 6d30 8bbc 6931 52bc c7ba c5bc ec7a cdbc
00000210: 5075 093b bb2a acbb e97a 4d3c e1ea d33b
00000220: 57ba 6d3c f408 2e3c 7ef8 2dbc 9f10 8b3c
00000230: feb3 e73c 584a eebb 4882 f5bb 956e debb
00000240: e1a7 dbba e8b9 97bc cb02 973c 6038 5c3c
00000250: 4452 3abc 1090 1d3c 5200 763b 4f47 8dbc
00000260: 635e e53c 0f2b a53c 09fa b0bc 7b2f c53c
00000270: e79f f03c 982c 003c 94c6 9d3c fb3b e7bc
00000280: c5c6 2b3c 7598 e3bc bd98 d63c 5367 dd38
00000290: 6778 203c 4b30 693c 8f0c a4bc 2bb4 2c3b
000002a0: cf08 44bc 67dc f73b e1aa d33b 9e8f 16bd
000002b0: dc82 54bb 73cf 273c 2ff9 383b c033 52bb
000002c0: 7d84 adba 0c37 17bc e83c 413b 54b0 2e3c
000002d0: f822 fd3c 8497 cd3b 82a7 9cbc 57a7 b83c
000002e0: 693b 903c 1947 063b 8229 a73b b26d 17bd
000002f0: aaf0 a7bb 09cc 2cbb f973 5cbc 7731 dfbc
00000300: e6b5 d5bd 8b67 94bc aa3e c03c d63f 64bc
00000310: b083 573c 6219 003d 1bd0 123d 3ed1 383d
00000320: 8573 cdbb 52bd 0b3b d8cd 033c 823b fb3c
00000330: ef6a 9a3c bd55 1d3c e895 0ebd fa8e c6bc
00000340: 0c08 6fbc 8f6b d6bd 3944 753d 4596 6d3c
00000350: ee91 8f3c 4464 88bb 0289 e0bb 85ce bb3c
00000360: cd90 9abc 5961 2d3c e3e0 95bc ae65 58bd
00000370: 333d b03c f691 90bc d6d7 d53c 84aa e73c
00000380: 67a4 b03a 2e58 d13a f8ef 063b 893b b9bb
00000390: 010a 28bd 4512 43bd 1e53 8139 85f2 1c3c
000003a0: 6014 28bb 38ce 82bc 7987 00bd e6e6 c43c
000003b0: 700e e33a a271 a03c abaf 70b9 3a30 a0b9
000003c0: cf6f e4bc 54b9 daba c4e6 c0bd 6bf5 7f3c
000003d0: 2790 c63c ab25 48bc 3c89 e73b 7a6d 34bd
000003e0: eb59 56bd c3b0 f8bb ae1b 50bd a60f 053c
000003f0: d71f aa3c 95ed 0dbb d8b2 9e3c 5fc9 00bc
