checkpoint_actor.pth (torch_old, 291819 bytes, 6 tensors)

fc1.weight f4 [256, 24]
00000000: 4917 9fbd 0960 3a3d f908 2b3d a0ae 113d
00000010: 9b0f 9fbd c323 3c3e e12c a5bc 76cd 403d
00000020: 2a3e 6bbc 91ef 013e fdb9 1d3c f8e4 fd3b
00000030: 7392 0e3c b75c c23d 47c5 b03d e22d 4b3d
00000040: 0095 09bd 6838 2c3e 1c30 2a3d 7ace 203b
00000050: 0374 8f3d 9510 06be aca3 f43c dc83 e2bc
00000060: 877a 1ebd 464d 253e 681c 1abd 9516 253c
00000070: 82f5 98bd 0aff 98bd c296 d73c a87e 8ebb
00000080: 3eb1 1d3c 2829 f33d e008 063d f4bf 933d
00000090: bf88 30bd a746 f7bd ead2 a5bd 2284 b43d
000000a0: b350 b73c ca18 213c 303e 303d c826 603d
000000b0: 94a4 47bd 9725 92bd 70b0 89bd 51bb 823d
000000c0: eac5 d73d ed16 0bbe 06df 0d3d 2f5c 9c3c
000000d0: 0cc6 973d 089c ea3b 7f63 5e3c 39cf 8f3c
000000e0: bae9 983d b587 08bc f0a4 c5bc 6ae6 543d
000000f0: ef99 843d 923b f33c 0d2c 31bd 72ab 09bc
00000100: e775 fc3d a335 24bd fbcf aa3a 5ef1 1aba
00000110: f578 433d 2658 1f3d 5d72 1c3d d1cc 953c
00000120: fcd9 993c e362 91bd bd25 873c fde9 a0bc
00000130: 7858 4a3e 6689 ac3d 7b81 bb3d 4a3f 0d3d
00000140: 6acf 1c3d c447 11be bf51 b4bc 366a e93c
00000150: 5500 613d dc59 97ba f101 323d cd56 363d
00000160: 670d 6a3b 0e68 1fbe 6a54 41bd b0ae 96bd
00000170: 60a9 c33d acbf 8bbd a41e 063c c337 a43c
00000180: 2ec1 093d 8c8d 00bd 8518 c9bc bdf5 963d
00000190: 842a a5bb 6d68 d1bd 1c08 e6bc 7561 7d3d
000001a0: 9e1a 00bd 2272 4cbd 5dcd 873c da27 d1bd
000001b0: 452e 663d 6c34 a8bc 5a53 4dbd 0f5b b0bd
000001c0: c0b5 b0bd 9119 d1bd b109 36bd 9d77 70bd
000001d0: 1459 18bd c02c 893d e15f e23c 8da8 22bd
000001e0: 8307 9abd 8a37 ae3d e8ef 89bc 731e b6bc
000001f0: c692 a13b 3152 333d b8e4 703a 0bc9 113d
00000200: ed80 42bd 04a6 543d 7841 aebc 821a 233d
00000210: 0d3c 31bd f41a b1bd 4e52 473d 41f5 8d3c
00000220: 5381 6cbd 225f 1e3e 0b3c 1e3c 59b4 013c
00000230: a181 4b3d c192 73be 4dfd 213d 293b 603c
00000240: 71d9 a43d 64eb 27bd 54d4 313d cd1b 8dbc
00000250: a369 0f3d a045 00be ce7e a1bb 6db7 8abd
00000260: d4db cb3c 8d25 1bbe 7bad d33c 82e2 063b
00000270: 7838 b53d a229 1d3d 8cd7 1f3d 52c3 d93c
00000280: 4558 3dbd 6dbc babd ea36 2b3d fc03 2e3d
00000290: 36a5 e63c 58fa 843c 811b 14bd e53a d8bc
000002a0: 9d82 b5bb a006 323d c645 49bd 05b0 6bbc
000002b0: 2fe1 b9bc 73b9 843c 42b5 5cbd 5ca8 573d
000002c0: 952a 343c 8036 a6bd c221 9ebc 65b6 ebbc
000002d0: 0a30 b73d 87e6 75bc 6a9f 0b3d b18c 6fb9
000002e0: 2be6 70bd 4c55 1ebc 2c6b ce3c 4427 50bd
000002f0: aebb 993d 345f 3f3d 0a98 2c3d b1e3 bc3c
00000300: 5577 00bd af2e 8a3d 764c 563c a58d 823d
00000310: eb92 b3bd 122d 5ebc 946c d0bc d75c e23d
00000320: 4b3e f53c 71b9 f53d 384b 5b3d f3b8 f53b
00000330: ba27 be3d 3f0b bcbd 88d3 573d 71b7 883c
00000340: 0371 893c 58f9 d83d f0e6 f8bc 2bd7 14bd
00000350: 3cc0 103e 7b97 bcbd 5994 a13c f67d 95bc
00000360: 5070 8cbd 90b3 a03d c0f3 a5bb 1905 253d
00000370: 9393 803d bc95 1d3d a721 0cbc d1ac 7a3c
00000380: d30d 52bc 30ed ec3d 6647 e4bc 9ffe 83bd
00000390: 6e9f 873c 704f 1b3c 2c6e 8f3d 39a1 583c
000003a0: 389e a1ba 4c2e ab3d 231b edbc a06a 6ebd
000003b0: f4d3 75bd 48d6 e13d 8707 8b3c 4e1e c2bd
000003c0: 0c4f 6dbd 15cc 07bd 60c1 1d3d 8411 773c
000003d0: b545 62bd 06e8 9a3d 843c cb3c 59f1 a43b
000003e0: 6696 61bc e4b1 953d 4282 c3bc 82a6 5cbd
000003f0: 31ee 983c 6cb7 d0bd e4dc 983d 8a10 05bc
-0.07768113 0.045501743 0.041756604 0.035566926 -0.077666484 0.18373017 -0.020163001 0.047070943
-0.014358083 0.12689044 0.009626863 0.0077482425 0.008701908 0.0949034 0.08631378 0.049604304
-0.033589363 0.16818392 0.041549787 0.0024537132 0.07004549 -0.13092263 0.029863201 -0.027650766
-0.03869107 0.16142759 -0.037624747 0.010076185 -0.07468702 -0.0747052 0.026317004 -0.0043485947
0.009624777 0.11873084 0.032723308 0.072143465 -0.04309916 -0.12074023 -0.08096869 0.08814265
0.022377348 0.00983257 0.043028057 0.054724485 -0.04874094 -0.07136076 -0.06723106 0.06383384
0.10535796 -0.13582964 0.03463652 0.019086925 0.07410821 0.0071597137 0.013573526 0.017554866
0.07466455 -0.008333136 -0.0241265 0.051977552 0.06474673 0.029691491 -0.0432549 -0.008402692
0.123271756 -0.040090214 0.0013031954 -0.00059106003 0.047722775 0.038902424 0.038195003 0.01828614
0.0187807 -0.07098939 0.016497487 -0.019642824 0.1976031 0.08424644 0.09155556 0.034484185
0.038283743 -0.14187533 -0.022011636 0.028493028 0.054931957 -0.0011547166 0.043458883 0.044516373
0.0035713555 -0.15567037 -0.047199644 -0.07357538 0.0955379 -0.06823668 0.008186016 0.02004612
0.033631496 -0.03138499 -0.024547825 0.073710896 -0.0050404686 -0.10224996 -0.028080039 0.06186052
-0.031275384 -0.049913533 0.016577417 -0.10212679 0.05619647 -0.02053281 -0.05012832 -0.08611118
-0.08628416 -0.102099545 -0.044442836 -0.058707822 -0.037194327 0.066979885 0.02763361 -0.039711524
-0.07520964 0.08506687 -0.016838029 -0.022231316 0.004930827 0.043779556 0.0009189355 0.03559212
-0.047486234 0.051916137 -0.021271452 0.0398202 -0.04327016 -0.08647719 0.048662476 0.01732886
-0.05774052 0.15465978 0.00965787 0.007916533 0.04968417 -0.23786451 0.039548207 0.01368598
0.08049286 -0.04099597 0.043415383 -0.01722517 0.035012852 -0.1252656 -0.0049284464 -0.06773267
0.024885096 -0.15151043 0.025839558 0.0020581787 0.08848661 0.038369782 0.03902392 0.026582394
-0.04622676 -0.091179706 0.041800417 0.04248427 0.02815495 0.016232654 -0.036159042 -0.02639527
-0.005539252 0.04346335 -0.049138807 -0.014385228 -0.022690384 0.01620171 -0.0538838 0.052650794
0.0109964805 -0.08115864 -0.019303206 -0.028773496 0.089447096 -0.015008575 0.034087576 -0.00022845228
-0.058813255 -0.009663891 0.025197588 -0.050818697 0.075065 0.046721652 0.042137183 0.02305779
-0.031363804 0.067471854 0.013079753 0.06374673 -0.08768257 -0.01356055 -0.0254424 0.11052864
0.02993693 0.11998261 0.05353853 0.0074988543 0.09284921 -0.091818325 0.052691966 0.016689034
0.016777521 0.105944335 -0.030383557 -0.036338013 0.14135832 -0.0920858 0.019724058 -0.01824854
-0.068573594 0.07846749 -0.0050644577 0.040288065 0.062781475 0.038472876 -0.008552945 0.015299992
-0.012820679 0.115686774 -0.027866077 -0.064450495 0.016555514 0.009479389 0.070034355 0.013222032
-0.0012330478 0.0835844 -0.028943604 -0.058207154 -0.060016587 0.11027199 0.016971363 -0.094784364
-0.057936713 -0.033153612 0.038514495 0.01507986 -0.05524226 0.07563786 0.02480913 0.0050336537
-0.013768768 0.073093206 -0.023865823 -0.05386973 0.018668266 -0.10191235 0.074640065 -0.008121619

fc1.bias f4 [256]
00000000: 266f db3c 68be dabd 2c08 f6bd ae15 683e
00000010: 9241 203e 1dc9 ebbd ce48 533e 667c c13d
00000020: 9a4c b33d c63a 4f3e 6894 ce3d 8a55 693c
00000030: 1285 63be f538 083e 6b82 67bd e731 8b3d
00000040: 902a c13d aa6f 0a3e 540f 473e c0c4 d8bc
00000050: 7c81 1bbc 3785 e4bd b325 923e 30b8 483d
00000060: a79b 583d d548 1dbd c723 92bd 61e4 33be
00000070: 1c95 a53d 2032 643d 2f1a fe3d cb1d 1bbd
00000080: 661d c8bb b3df 13be fc5b f83c 5d0d 9e3d
00000090: 17b1 3fbd 16af 5f3e 5f68 523d 9ea4 32be
000000a0: 9e16 063d 1afc e8bc 5f32 fd3d 7a27 5f3d
000000b0: 6269 343d 9def 343e 0970 293e 98d1 873c
000000c0: 4f8a a5bb 06a0 ce3d 020c 0b3e 5576 9a3d
000000d0: 3ca0 e03d 3b2d 48be c14b 0abd 7f46 afbd
000000e0: 91b2 41bd ea4f 5ebd 6fba 31bc 440b cbbd
000000f0: 0a8f 353e d2d2 00ba 99d0 0b3e 2da9 8a3d
00000100: a2f3 e13d b6a4 4abe 4ee8 d5bc 53b2 cb3a
00000110: d36b c23d f676 423e df92 d03d f170 e03d
00000120: 345f dc3d 0d1f 71bd 6284 4dbd d5af c43d
00000130: 22f4 cc3b aea2 2abe 133a 0f3e f8a8 e9bd
00000140: 8d89 11be fece e63d 4ba6 d13c 0f02 d4bd
00000150: 7101 033e 7fd7 17bd e8f1 923c 82a5 a93d
00000160: a614 b1bc 1ace f13d e823 f53d 67d5 bc3c
00000170: c032 b23d 7e7d 123e 88c5 4ebd acce 8b3d
00000180: d103 30be b4fb 063e bbe0 ddbb 9da0 403d
00000190: f076 3abe 4151 94bd 453c 41be 717d 2fbe
000001a0: 41f6 813d 18ec e43c e9c3 063c 0c61 2b3e
000001b0: c50b 253e 4029 77be b21a a6bc df25 ea3b
000001c0: 3fc4 0d3e 7230 813e e1ef 85bd 9ef7 133e
000001d0: 4169 e93d 898b 89bd 1a04 e2bd f03c a2bd
000001e0: c450 cf3d 59d1 0d3e c115 483e 1be9 9cba
000001f0: c492 273e 05ad d4bd 7778 043c a493 e13d
00000200: e302 ddbd b187 e6bd f386 283e 91d2 ed3d
00000210: 933c 1d3e 0d6f c13d 729f 61bd d635 b53c
00000220: 36c2 323c 74b7 9bbd 8487 603e 32bb ccbd
00000230: 09ae 57bd c18f 9f3d fe2c 953d bffa a6bc
00000240: 5bf9 fc3d 2a6d b83d c782 29bd 25eb 12be
00000250: 71a4 24be 980f 403e f8a8 f3bd 217d 5f3e
00000260: 7f67 dfbd 8dce 133d aca5 0c3e afc3 40be
00000270: cefc 54bd cbe1 1ebe b707 033e 6e55 1b3e
00000280: 564b 6d3e 4cf0 2c3e 508e 463e 54a9 9cbd
00000290: 570e 093e 2292 37bc e4de 2dbe 1681 5dbd
000002a0: cb67 c03d 53ed 22bd 52b8 8dbd e054 fbbd
000002b0: d7b7 29be 9558 103e d1c3 58be 429a 55bc
000002c0: fd28 0ebe 34a1 07be 6b5f 043d c87f 31bc
000002d0: 6b7e f13c 75a9 df3d 0462 13be 4555 693e
000002e0: 2c98 0cbe 3c48 a6bd 3d8b 223e 4274 65be
000002f0: ae3b 9e3d ed98 343d 9f97 6abd 2c8f 67bd
00000300: 1fc9 1f3e abf9 d3bd e2f7 803c ae45 e1bd
00000310: a8ee 24be 548a 513c c1b5 533c 3eb6 0c3e
00000320: c637 fb3d 8378 02bd e47e 313e 929c 17be
00000330: 3863 c0bd 1052 0dbe 3a2b 2fbe fc38 3e3e
00000340: 9683 df3d c5c7 c53d fe9e a43c f130 d13c
00000350: 340b e2bd 8ec2 4bbd 833a fcbd 4a5b 0ebe
00000360: e864 eebd 0cd9 8a3d 7e85 80bd 816e 25be
00000370: c54f 02be 77f7 043e 04a5 503e 275c 483e
00000380: 8786 1d3d d9a0 ac38 9c50 103d 1a92 9b3d
00000390: 9248 89bd b677 ec3c 3128 383e 30dc cc3d
000003a0: 09f9 3c3d 8268 5a3e 4808 22be d08f 91bd
000003b0: 0759 cebd 3c8a 8abd 4095 743d 57dc a43d
000003c0: 3d7e 393e 2be5 8abd 4550 273d 7f8b 36bd
000003d0: 56de b53d f92f 1dbc 14fe 64bd ba25 413e
000003e0: ef9c a53d 8ccc 243e 9db1 183e 82ee 1fbd
000003f0: 9ce9 1c3d 74e1 2ebe 13b8 b73c 7cb2 e33d
0.026786398 -0.10680848 -0.120132774 0.2266452 0.15650013 -0.11512969 0.20633242 0.09447555
0.08754845 0.20237264 0.100869 0.0142415855 -0.22218731 0.13302977 -0.05652086 0.067966275
0.09431946 0.13519159 0.19439441 -0.026461005 -0.009491321 -0.11158221 0.28544387 0.04900378
0.052882817 -0.038399536 -0.0713573 -0.17567588 0.08085081 0.055711865 0.12407338 -0.03787021
-0.00610702 -0.14440803 0.030317299 0.077173926 -0.046799745 0.21844134 0.051369067 -0.17445609
0.032736413 -0.028440524 0.12363123 0.054481007 0.044045813 0.1766953 0.16546644 0.016579434
-0.005051888 0.10089116 0.135788 0.07542101 0.10968062 -0.19548504 -0.03376365 -0.08558368
-0.047289435 -0.05427543 -0.010847672 -0.09914258 0.17730346 -0.0004914227 0.13653792 0.06770549
0.110327974 -0.19789395 -0.026111748 0.0015540816 0.09493222 0.18990692 0.101842634 0.10959042
0.10760346 -0.058867503 -0.05017508 0.0960385 0.006254689 -0.1666362 0.13986997 -0.11409181
-0.14212628 0.112699494 0.02559199 -0.10351955 0.12793519 -0.037070747 0.017937616 0.08283521
-0.021616291 0.11806889 0.11969739 0.023050977 0.08701086 0.14305684 -0.05048135 0.06826529
-0.17188956 0.13181955 -0.0067711747 0.047028173 -0.18209434 -0.072420605 -0.18870647 -0.17137696
0.06345797 0.02794461 0.00822542 0.16736239 0.16117771 -0.2413683 -0.020276401 0.007145628
0.13844393 0.25232273 -0.06539894 0.14449927 0.11397029 -0.06716067 -0.110359386 -0.07921779
0.10122827 0.13849391 0.19539548 -0.0011971326 0.1636458 -0.10384563 0.008085362 0.11014488
-0.10791566 -0.1125635 0.16457729 0.11612428 0.15355138 0.094450094 -0.0550837 0.022120398
0.010910561 -0.0760335 0.21926695 -0.09996642 -0.052656207 0.07791091 0.07283972 -0.020383237
0.12352248 0.090051964 -0.041384485 -0.14347513 -0.16078354 0.18755949 -0.118974626 0.21825077
-0.10908412 0.036085654 0.13735074 -0.18824647 -0.051998906 -0.1551582 0.12795912 0.15169308
0.2317327 0.16888541 0.19390225 -0.07649484 0.13384376 -0.011204274 -0.16979557 -0.054078184
0.09394797 -0.03977711 -0.06919922 -0.12272048 -0.16574036 0.14096291 -0.21168448 -0.013037266
-0.13882823 -0.13245088 0.03231756 -0.010833688 0.029479226 0.10920993 -0.14392859 0.22786434
-0.13729924 -0.08119246 0.15873428 -0.2240763 0.07726227 0.044091154 -0.057273503 -0.056533024
0.15604065 -0.10350355 0.0157432 -0.109996185 -0.16106665 0.012789328 0.0129217515 0.13741395
0.12266497 -0.03185321 0.17333561 -0.1480582 -0.093939245 -0.13800836 -0.17106333 0.18576425
0.1091377 0.09657244 0.020095345 0.025536032 -0.11037293 -0.04974609 -0.12315848 -0.13902012
-0.1164034 0.0677968 -0.062754616 -0.16155435 -0.12725742 0.12985025 0.20375448 0.19566403
0.038458373 8.231559e-05 0.035233125 0.07596226 -0.06703295 0.028865676 0.17984082 0.10002935
0.046135936 0.21328929 -0.15823472 -0.07107508 -0.10075574 -0.06764647 0.05971265 0.08049839
0.18114562 -0.067819916 0.040848035 -0.044566628 0.08880298 -0.009593957 -0.05590637 0.18862048
0.08086573 0.16093653 0.14911504 -0.03904582 0.038308725 -0.17078191 0.02242664 0.111180276

fc2.weight f4 [256, 256]
00000000: 260c 79bc 1c5d 98bd 994a a23b 6fba 5ebd
00000010: da51 563d 413a 303d 767b 0a3d 40ab 4cbd
00000020: a697 713d 9119 2ebd a3f8 7dbd a132 35bd
00000030: fa7e 533d 3805 21bc 70e3 063d 6897 ad3c
00000040: 5e0c 2b3d 9c8c 9ebc 23af 42bd f8de 5fbd
00000050: ddd1 c63c 9669 6e3d cb68 66bb 0301 043d
00000060: 5fc8 69bd 13e0 5abd d5ce c73c 2da2 2abd
00000070: a0a8 9dbd 1b59 43bc 7123 293b 2d5d 01bc
00000080: 235e 4ebd 9f30 08bd bec7 593d 49bc 96bb
00000090: 55e4 84bd a163 573d 3dbd 7cbd df04 40bd
000000a0: 03e5 2b3d 8542 4c3d 6485 f83b 4ad3 59bb
000000b0: af8a 313d 81ab 213d f1ad 183d 91d0 ddba
000000c0: 1b04 2d3d 18b6 833c 91ab 0abd 19aa 78bd
000000d0: fbb9 85bb fb29 5b3d d3ab 0cbc b8a2 a33c
000000e0: e1ad 5ebd fcb3 483c db07 80bc 6b2d 2e3b
000000f0: c986 18bc 7f80 c93c 9962 ccbb 8b20 37bc
00000100: 74cb 4f3c f77a 253d 3244 333d 760a 5d3d
00000110: 55fc b4bd 022a 16bd 6b70 fb3c f339 a0bd
00000120: 7377 a53c 0c74 4d3d 0794 a13c 965d fcbc
00000130: 7840 7ebc 51aa 873c 450d 30bd e77c 873b
00000140: c6ee fa3c 7157 efbb 55b2 0f3d caa6 59bd
00000150: 2752 2bbc ebd1 183d d83f d53c e9ef c53c
00000160: 8a1c e43c 7422 2cbc 7a72 2b3d 86ab 24bd
00000170: f59b 6d3c 58e4 83bd bb9a 83bd 5964 1f3c
00000180: a710 033d 4cca 00bd 2603 00bc e6d7 a13d
00000190: ea5c 533d 951c 49bc f8e8 8dbc 775b 5c3b
000001a0: 8a7b 783d 3961 0e3d a748 59bd 0e05 283d
000001b0: 6cf6 8e3d 349f 973d 1106 97bc 3ae4 253d
000001c0: ab9f 35bd f00c 0dbc 8429 b0bd 77de 02bd
000001d0: 095e 0ebd 2e13 3a3d 2a3c f4bc 7100 12bd
000001e0: f692 f53c 950f c63c d2e0 c93c da38 47bd
000001f0: 28d7 26bd d030 a0bd 23ce 49bc d6ed 0b3d
00000200: 65bd c3bc 5978 91bd 647a 11bc 76cc b83c
00000210: cb7d 513b 58fc 063c f253 043d a739 8f3c
00000220: 6132 cf3c 201e 51bd d36f 22bd bb26 52bd
00000230: 12d1 bd3d 3b52 dc3a 86e5 743d faff f53c
00000240: 8a14 bebc 2ddc c33d e162 7d3c 5e34 853d
00000250: a2d9 f8bd d40f 37be 8ae4 6bbd 1612 81bd
00000260: 0470 4ebd 6abd 9cbd 1a43 49bd 7643 953c
00000270: 12c5 80be 3bca eebd 15e0 9bbb e97b debc
00000280: 5397 1c3d 8a8d 0d3d 0f13 aebc a30f aebb
00000290: 1c0e 1fbc 7267 6fbd 9e42 ea38 ca70 323c
000002a0: d517 5cbd 64e0 623c 73ff a4bb 1494 e2bc
000002b0: 1561 98bc 3515 f2bb 0d8b 84bd 4101 083e
000002c0: 58d2 be3d 8a14 debb b187 f53c 029b 36bd
000002d0: 7f82 1bbe 1220 d53c 7f22 833b 7be4 c1bb
000002e0: 3324 70bb 1065 99bd a66c e93c 5415 ba3d
000002f0: 9642 713d b824 39bb 384a ffbc 94d4 aa3d
00000300: 1c29 673d b248 8cbd 84c9 20bd 8ef2 f1bc
00000310: 5b5f 07bd bea9 83bd 157a 0bbd 9467 693d
00000320: a457 09bd f054 d7bc b22a 833d 228e d73c
00000330: 7cbe 09bd 4165 eb3c c542 a4bc b11b ea3c
00000340: 6396 acbc d096 21bc 2a16 503c 27c7 dd3c
00000350: e00f 0dbc 730f c13c 9bda cf3b aa56 5fbc
00000360: 76cd 88bd 4fda faba e34a a1bd c4be c83c
00000370: 6dfd 69bd 1bc9 76bd fb60 d9bd 1939 30bc
00000380: ccb7 0dbe c58c a4bd 3a66 d4bc d649 763d
00000390: 36a1 b93d ab1b 05bd 800e 36bd 4904 58bd
000003a0: 3f2d 31bd fcda 29bd ef4a adbc 8077 9ebd
000003b0: d9b2 a6bd ec03 08bd 2ffc afbc 36db e6bc
000003c0: 215e 763d d7f4 b73c bbcd 7b3d 5f6d 3f3d
000003d0: 1f08 6a3d 9cdf 36bd 843b b83c 55b0 8fbb
000003e0: 6a03 94bd 3265 aebd ca70 abbc 88df 7ebc
000003f0: 2217 723d f8aa 7ebb ee4e 7f3d 2df7 053d
-0.01520065 -0.07439634 0.0049527404 -0.054377016 0.052324153 0.043024305 0.033809148 -0.049968004
0.058982514 -0.04250485 -0.062004697 -0.044237737 0.051634766 -0.009827904 0.032931745 0.02119036
0.04175984 -0.019354157 -0.047530305 -0.054656 0.024269992 0.058206163 -0.0035157676 0.032227527
-0.057075854 -0.05343635 0.024390617 -0.04165857 -0.07698178 -0.0119231 0.0025808478 -0.00789575
-0.050382745 -0.033249494 0.053169005 -0.004600082 -0.064888634 0.052585248 -0.06170391 -0.046879645
0.04196645 0.049868125 0.007584261 -0.003323751 0.04334515 0.0394702 0.03727526 -0.001692312
0.042240243 0.01607804 -0.033855025 -0.060709093 -0.0040810085 0.053506833 -0.008585888 0.019975051
-0.054365043 0.012249943 -0.015628746 0.0026577364 -0.009309479 0.024597405 -0.0062373397 -0.011177192
0.012682784 0.04040047 0.043766208 0.053965054 -0.08837191 -0.036661156 0.030693254 -0.07823553
0.02019856 0.0501595 0.019723905 -0.030806344 -0.0155183 0.016560705 -0.042981405 0.0041347626
0.030631434 -0.007304125 0.03508218 -0.053137578 -0.010456598 0.03730957 0.02603142 0.02416225
0.02784564 -0.010506261 0.04185722 -0.04020264 0.014502515 -0.064400375 -0.06425997 0.009728515
0.031998303 -0.031442925 -0.007813251 0.079025075 0.05160228 -0.012274881 -0.017323002 0.0033623853
0.06066469 0.034760688 -0.053047802 0.041020446 0.06980595 0.074034125 -0.01843551 0.040500857
-0.044341724 -0.008609042 -0.086016685 -0.03195044 -0.034757648 0.045428447 -0.029813845 -0.035644952
0.029977303 0.024177352 0.024643335 -0.048638202 -0.040732533 -0.0782181 -0.012317213 0.034162365
-0.023894021 -0.071030326 -0.008879278 0.022558432 0.0031965848 0.008238874 0.03230662 0.017483545
0.025292577 -0.05105412 -0.039657425 -0.051306468 0.092683926 0.0016809175 0.059789203 0.030029286
-0.023203153 0.095634796 0.015465469 0.06504129 -0.12150885 -0.17877132 -0.057591 -0.06302278
-0.050399795 -0.07653315 -0.04913626 0.018220644 -0.25150353 -0.11659666 -0.0047569373 -0.027158694
0.03823025 0.03455881 -0.021249322 -0.0053119226 -0.009707954 -0.058448263 0.00011170398 0.010891149
-0.053733665 0.013847444 -0.0050353347 -0.0276585 -0.01860098 -0.007387782 -0.06471834 0.13281728
0.09317464 -0.006777351 0.02997193 -0.04458142 -0.15186499 0.026016269 0.004001915 -0.0059171296
-0.003664267 -0.07489979 0.02849419 0.09086099 0.058901392 -0.0028250646 -0.03116332 0.08341327
0.05643569 -0.06849803 -0.03925468 -0.029534604 -0.033049922 -0.0642886 -0.034051973 0.056983545
-0.033530846 -0.026285619 0.06404628 0.026312891 -0.033628926 0.028734805 -0.02005137 0.028577657
-0.021067804 -0.009862617 0.012700597 0.027072502 -0.008609742 0.023566937 0.0063431985 -0.013631502
-0.066798136 -0.0019138547 -0.07875612 0.024505027 -0.05712645 -0.060250383 -0.10614201 -0.010755801
-0.13839644 -0.08034662 -0.025927652 0.06012901 0.09063952 -0.03249709 -0.044447422 -0.05273846
-0.04325604 -0.041468605 -0.021153895 -0.077376366 -0.08139581 -0.033206865 -0.021482555 -0.0281807
0.060148362 0.022455616 0.061475497 0.046735164 0.05713665 -0.044646844 0.022489317 -0.004385034
-0.07227214 -0.08515395 -0.020927805 -0.015556224 0.059104092 -0.003885923 0.062331133 0.03270643

fc2.bias f4 [256]
00000000: ed87 81bd 3bd6 d03c e8ea 5ebd 6ccc 723d
00000010: 9042 9f3d 5214 653d cf9e 2f3d 7afa e2b9
00000020: 936f d93c 9803 4ebd a479 113d 5ca4 21bd
00000030: 6074 69bd 28d8 df3c c194 213d faf2 7f3d
00000040: e04f 8f3c 17c2 5cbd 226d 1d3d a947 28bd
00000050: 001a 623d b168 573d a4bc eb3a c771 49bd
00000060: 076c 42bd b3b7 a93d c7bf 033d 0ed4 8b3d
00000070: 329b a73d 9767 253d 88b3 79bc 1b4f 42bd
00000080: 1347 923c afa2 03bd 065d fe3c db93 073d
00000090: 4ba1 663c dc5d 16bc c237 063d bf08 eb3b
000000a0: e544 fd3b 9749 1fbd 3a32 ccbc 4bb4 043d
000000b0: 8d03 433d 9d74 323d db63 20bd eb1e 903d
000000c0: 7762 d2bc c46c 273d 99e0 1e3d 4d1a 1e3c
000000d0: af5b 973d e4da 993c 738a 993b 4ddb 49bd
000000e0: be28 e6bc 23eb de3c 8dc9 93bd a711 4b3d
000000f0: 8e78 443d 39eb 4b3d 3b03 b6bc 7583 a13b
00000100: b9a7 4c3d 0f7a 6dbc 44eb 5ebd 9876 2bbc
00000110: 537b 903c b4ec 1abd 5501 8ebd 488d fa3c
00000120: 97c5 18bd cdf6 433d 8145 12bd f891 2dbd
00000130: dcae 37bd 6851 42b9 32b9 0c3c 1c29 a9bc
00000140: 2141 48bd 7ff1 5abd fc27 b83c a37f 473c
00000150: ea62 8f3d 0228 4cbd 36e9 8ebd c5b2 493d
00000160: 2b28 e63c 2324 843d 52cb 893c 4a0a ddbc
00000170: 794a 853d f850 603d d008 883c c067 47bd
00000180: 5e7e cc3c 765f 67bd f162 07bd 82bf 353d
00000190: 0091 b7bb 03ac 3b3c ecda 403d ba2a 633d
000001a0: fa18 213d ee27 d5bc e14a 993d 8d56 9f3d
000001b0: a101 c4bd 5e5d 75bc 1aa7 2dbd 9731 02bd
000001c0: fcfa 303d 143e 6bbc a4f4 6abc 1996 c23b
000001d0: 2c2d b6bb 07d4 003c 075e 97bd be85 0abd
000001e0: 7e08 f1bc 967e 0ebd 9b4f 0abd e30d 4a3d
000001f0: 1fc1 07bd d64d eebb 8dea 6d3d 90d6 9a3c
00000200: e9d8 f1bc e4b8 243d fd4f 183d 01f9 a3bc
00000210: 9770 45bd 5cba 3b3c 95c2 8f3c 7715 223c
00000220: 4c6e 28bd b50f 193d 80b6 093d ee6c 8a3c
00000230: dc4f aebc a6e3 243d 5528 27bd 8b56 843d
00000240: 5d1c 44bd d6b3 03bd 14a3 d8bc cfa0 543d
00000250: 87bc 483d 0ca1 06bc 2555 753d 4df0 b03c
00000260: 3a14 183d 8dc9 023d 0200 aabb 3b72 c33c
00000270: 01b0 babc c8f2 693d 8b2e c23b db08 723d
00000280: 86c8 7bbd 2731 98bb ebf6 42bd 48a2 793d
00000290: 4176 7d3d 0834 df3c 34bd 04bd af48 adbb
000002a0: 0299 ae3b e1b2 643c 7bed b63d ad85 27bd
000002b0: 5bec 38bd 0776 0a3d 205d ad3d 5e80 c93c
000002c0: f189 f53c e1bd cdbc e982 9a3c f461 8a3d
000002d0: 7e0b c63b 2993 5f3d 5720 843d 4f96 0f3d
000002e0: ed32 47bc 6664 3ebd 67d9 5cbd a3bd 86bd
000002f0: a48d eabc abe6 7fbd c10f a63c 670e 433d
00000300: 05ef 73bd 943c d93b 2255 75bb 85d2 9cbc
00000310: 6a2f 80bc d33b 003d 7ae5 8d3d a567 0c3b
00000320: acf4 b1bc 0cd4 13bd 775f 9739 e969 93bd
00000330: b8b7 2b3c 9cfe 753d 4a5c 383c 933d 1a3d
00000340: abcd 5dbd 7be1 d53c 2f65 c4bc 087d 15bd
00000350: d0f4 9e3d f4af 803d 78ec c2bc 3f8c 9b3d
00000360: 0126 ac3d bcbf 293d 9a0e 80bd dada 833d
00000370: 2b87 16bd 8310 913d 39c8 d83c 0a4b 1c3d
00000380: d889 90bb 3a31 ff3c d5ca 0fbd 87cc 823d
00000390: eb8f 0ebd 75db adbc 86c2 4ebd 4f5d 353d
000003a0: c01d 493d d88a 8c3a a27b 2b3d 0b49 01bd
000003b0: 123a fc3c d402 373c 2ba1 00bd b082 cfbc
000003c0: e337 76bc e6cd 94bc a637 0b3d 3e15 f1bb
000003d0: b945 df3c 845c 953c 13e0 1dbd 4875 4d3d
000003e0: 07e9 49bd f0e4 d3ba f875 e5bc 4e7e 71bb
000003f0: a942 763d b57d cabc 0ce2 aa3b 3e2d 8fbc
-0.06324754 0.025492778 -0.054423243 0.059276983 0.07776368 0.055927582 0.04287606 -0.000432927
0.02654246 -0.050296396 0.035516396 -0.039463386 -0.05699575 0.027324751 0.039448503 0.06248758
0.017494142 -0.053896036 0.038434155 -0.041083965 0.055200577 0.052590076 0.0017985296 -0.049180772
-0.047466304 0.08286991 0.032165315 0.068275556 0.08183898 0.040381994 -0.0152405575 -0.047438722
0.017856156 -0.03213757 0.031050216 0.03309999 0.014076541 -0.009177651 0.03276802 0.0071726735
0.00772916 -0.03888854 -0.024926294 0.032398503 0.04761081 0.043568242 -0.03915773 0.07037147
-0.025681717 0.04087521 0.03878841 0.009649825 0.07390534 0.018781133 0.004685694 -0.049281407
-0.0280956 0.027211731 -0.07216177 0.04957738 0.047966532 0.049784873 -0.022218337 0.004929001
0.04996464 -0.014494433 -0.054423586 -0.010465287 0.01763693 -0.037823394 -0.06933848 0.030584946
-0.03729781 0.04784279 -0.035710815 -0.042375535 -0.044844493 -0.00018531608 0.008589076 -0.020649485
-0.048890237 -0.053452965 0.022480004 0.012176427 0.07001288 -0.049842842 -0.06978075 0.049242754
0.028095325 0.06452205 0.016820583 -0.026982445 0.06508345 0.054764718 0.016605765 -0.048682928
0.0249626 -0.056487523 -0.033053342 0.04437209 -0.005602002 0.011454585 0.04708378 0.05546067
0.03933046 -0.026020017 0.07484985 0.0778018 -0.09570623 -0.014975874 -0.04239569 -0.031785574
0.043208107 -0.014358062 -0.014340553 0.005938303 -0.005559584 0.007863051 -0.07390981 -0.033818953
-0.029422995 -0.03478869 -0.033767324 0.04932965 -0.03314316 -0.0072724624 0.058085013 0.01890114
-0.029522376 0.040215388 0.037185658 -0.020016195 -0.048203077 0.011458006 0.017548839 0.009892813
-0.041120812 0.037368495 0.03362131 0.016897645 -0.021278314 0.040256165 -0.040809948 0.06461819
-0.04787861 -0.032153927 -0.02644495 0.05191117 0.04900792 -0.0082171075 0.059895653 0.02159896
0.037128665 0.031930495 -0.005187989 0.02385818 -0.022789003 0.0571163 0.0059259585 0.059090476
-0.06147053 -0.0046445313 -0.04759876 0.06094578 0.061880354 0.02724649 -0.032407 -0.0052882056
0.0053282985 0.013958664 0.089320146 -0.040898968 -0.04514728 0.033803966 0.08465028 0.024597343
0.029973002 -0.025114955 0.018861251 0.06756964 0.0060438504 0.054583702 0.06451481 0.035055455
-0.012158138 -0.046482466 -0.05391827 -0.06579139 -0.028631993 -0.06247584 0.020271184 0.047621157
-0.05955412 0.006629536 -0.0037434776 -0.019143352 -0.015647609 0.031307053 0.06928535 0.0021424082
-0.021723114 -0.036090896 0.0002887209 -0.07197935 0.010480814 0.060057268 0.011252472 0.037656378
-0.05415122 0.026108494 -0.02397403 -0.036496192 0.07761538 0.062835604 -0.023794398 0.07595109
0.08405686 0.041442618 -0.06252785 0.06438227 -0.03675 0.070832275 0.026462661 0.0381575
-0.0044109635 0.031151403 -0.035105545 0.06386667 -0.03480522 -0.02122281 -0.05047848 0.04427844
0.049100637 0.0010722531 0.041865952 -0.0315638 0.030789409 0.011170108 -0.0314037 -0.025330871
-0.015027973 -0.018164586 0.033988617 -0.0073572686 0.027254926 0.018232591 -0.038543772 0.050160676
-0.049294498 -0.0016166251 -0.028010353 -0.0036848965 0.060122166 -0.024718145 0.005214935 -0.017477628

fc3.weight f4 [2, 256]
00000000: 6f9f 8b3a 2010 d8bc b745 ad3d 8fc7 f2bc
00000010: fa0b 7cbe 1fa5 8b3d 3e45 c43d 5118 37be
00000020: 5379 c2bd 0936 24be d375 313d 8cf8 72bd
00000030: 2a8b 813d 29cf 223c 4bf1 f93c 7d72 76bd
00000040: cba9 473d 79b6 9d3b 5a7d 12bd bada 28be
00000050: 2e66 a1bc 3c23 babd 85b4 bb3c 36e2 543d
00000060: 5bce 95bd c116 f4bc bce6 2c3e 5c54 d9bc
00000070: d281 90bb 1e84 debd 61b2 4abb 4afe e93b
00000080: 4def 0ebd e312 c5bb f35b dcbc 6496 a9bc
00000090: 8d40 263d 4726 a53c a09e 31bd 3aff 34bb
000000a0: f857 23bd ad6e 073d 2ed3 083e 4caf cf3c
000000b0: 6245 353d 7c3f 423e 5fc0 1e3c a1ee 80ba
000000c0: 44d0 0d3d 34e1 343d b40d e33d b6a5 01bd
000000d0: 3989 c2bc eb38 ba3d 2171 f53a 6e87 d23d
000000e0: 0fc5 b93d 52fb 11bd 12ea 103c 0287 2cbc
000000f0: 3f93 8bbc 852f 663b 6cd8 b2bc 024c e43d
00000100: b0ef ffbc 0f2b 49be 2c7f 8cbe b674 8d3c
00000110: 0074 aa3c 12d3 7c3c 9008 cd3b b94f 53bd
00000120: 8ea1 08b9 5d04 2c3e 9f4a 06bd b75c 153d
00000130: 89d3 08bd e5c6 c53b 25c6 1c3e 5cd1 953d
00000140: b206 2d3d b462 5c3c 9081 193a 65ef 063c
00000150: a4a5 b8bc 9b48 f5bd 0102 e03d e880 213d
00000160: 6284 be3d 18c0 b0bc 0caf 18bd d7a2 3b3e
00000170: 4561 05bd c560 adbb f625 bebb dfe3 0c3e
00000180: 9447 3bbd 302d 203c 22ec f4bd 8ffb eabd
00000190: de97 3abe fbf2 1a3e 428c c13d 767e d93c
000001a0: d113 3e3c 5e47 e0bb 42c8 b53d be79 92bc
000001b0: 5da4 723b 1327 c13b 5d55 0d3e 513f cbbd
000001c0: 949f 643d 3dfa 99bd ae6b 483c 15c5 003e
000001d0: ec10 ccbd 6b36 28bc f897 203c e80b 253d
000001e0: 3661 533d c2ec 0cbe 33b1 943c 9db3 793d
000001f0: 7aa8 debc a2be a1bc baf1 df38 2f46 18bd
00000200: 912f 8e38 13dc 4b3c 2af5 6b3e 8b64 1abd
00000210: 4f1d e73d d278 b13d 903f a93c a968 3fbe
00000220: 375d c23c a94c 5e3d 232b aab9 4129 db3d
00000230: d506 88bc cf7a 3ebd ea1e ef3b 33cf dd3d
00000240: aaa4 143c 749e 1a3e 738a 353e b9d4 07bd
00000250: f0a7 0cbd d154 fc3c 0fff 6e3d 00be 4e3d
00000260: 86cb aa3d 148b 4c3d cb43 71be cd8f 7d3c
00000270: d88c 00be 31e5 27be 681e 0d3e cad5 50bd
00000280: 86c3 cb3c 4c1b 3dbc 99ad 14bd 4fce 2fbd
00000290: 8fca cbbc 8d6b cc3c c2e4 253c 94df 353d
000002a0: fcff d33b 0751 883e f940 06bd 4819 ec3d
000002b0: de31 383e 4b95 093e c75c 0fbd 5358 083c
000002c0: 9807 e7bc a221 c4bc 0608 f6bc dc76 6ebb
000002d0: 23d5 b93c 29b2 c4bc 2392 bbbc aa81 883d
000002e0: bfb5 0ebd 2c84 21bd cca1 2d3d dbdf 8f3c
000002f0: 3948 813c 0f4e 783d 9c09 cf39 6b00 783b
00000300: 1216 413d 8cbc b03b 1299 233c fa70 bd3c
00000310: 1401 47bd c29b d13c 4fad 6d3b e14c 953d
00000320: cc0c afbc aaed 3b3c 4c61 c2bb 07c9 b83c
00000330: 67b5 b1bd 0a0a 723d e23d fd3d eeca 2e3c
00000340: e98b 09bb eb9d 803d 3bb9 e83d 641e 033c
00000350: 4f57 86bd a6f3 11bd c80f 933d 2918 b33c
00000360: 50c2 b0bd 720e f73b 4a7a 3cbb 149c c4bc
00000370: c1a1 b5b9 6037 01bd 8922 e1bc d65c 1bbd
00000380: f219 10bd 4efe bc3d ab4e ab3d 6b0a 34bd
00000390: 2ec4 e33c 61aa d4bd 57af 483c ac84 cdbc
000003a0: 6f47 c73c 361d 6cbc d64f 6d3d cb92 2bbc
000003b0: da4b 04bb c38c 223e 958a 7d3d bcc4 3f3e
000003c0: 206f 4ebc 59f1 a33d f1ac 4a3d 1a61 3c3e
000003d0: 1a3f fbbc 51ba 24bd e834 183b ee76 df3d
000003e0: 61d3 473c 0790 803d 4a05 afbc ab45 dbbc
000003f0: 8c54 ccbc ee37 45bd a380 8dbd 2873 44bc
0.0010652373 -0.026374876 0.08460563 -0.029636173 -0.24613944 0.06818604 0.095835194 -0.1788037
-0.09495797 -0.16036238 0.043325257 -0.059319064 0.063253716 0.009937086 0.030510565 -0.06016778
0.04874591 0.004813012 -0.035764076 -0.16489688 -0.019702043 -0.09088752 0.022913227 0.051973544
-0.0731475 -0.029796006 0.16884893 -0.026529483 -0.004410007 -0.10865043 -0.0030929076 0.0071409093
-0.034896184 -0.0060142144 -0.026899314 -0.020701595 0.040588904 0.020159854 -0.043364167 -0.0027617947
-0.039878815 0.033064533 0.13361809 0.025352143 0.04425562 0.1896953 0.0096894195 -0.0009836742
0.034622446 0.044160083 0.11086598 -0.031652175 -0.023747073 0.090928875 0.0018725732 0.102797374
0.09070789 -0.03564007 0.008844869 -0.010530235 -0.017037986 0.0035123539 -0.021831714 0.1114731
-0.031242222 -0.19645332 -0.27440774 0.017267566 0.020807266 0.015431182 0.0062571242 -0.0515897
-0.00013030155 0.1679854 -0.032786008 0.036465373 -0.03340486 0.006035673 0.15309961 0.07315323
0.042242713 0.013451267 0.0005855793 0.008235787 -0.022539921 -0.11976739 0.10937882 0.039429575
0.09302594 -0.021575972 -0.037276313 0.18323837 -0.032563467 -0.005291077 -0.005802865 0.13758801
-0.04572256 0.009776399 -0.11959101 -0.11473762 -0.18221995 0.15131752 0.0945058 0.02654956
0.011601404 -0.006844445 0.08876087 -0.017880317 0.0037024238 0.0058945506 0.13802095 -0.09924186
0.055816248 -0.07518432 0.012232704 0.12575181 -0.09964165 -0.0102668805 0.009801857 0.040294558
0.05160638 -0.13762191 0.018150901 0.06096231 -0.027179945 -0.019744221 0.00010678494 -0.037176307
6.7799476e-05 0.0124426065 0.23042741 -0.03769354 0.11284887 0.08665623 0.020660192 -0.18692268
0.023726089 0.054272328 -0.00032457066 0.10701228 -0.01660482 -0.04650384 0.0072973864 0.10830536
0.009072462 0.15099508 0.17728595 -0.033161853 -0.034339845 0.030802162 0.05834871 0.050474167
0.083396 0.049937323 -0.23561017 0.015476179 -0.12553728 -0.16396023 0.1378113 -0.050985135
0.024873506 -0.011542153 -0.036298368 -0.04292136 -0.02487686 0.024953628 0.010125341 0.044402674
0.0064697247 0.2662432 -0.032776807 0.115282595 0.17987773 0.13435857 -0.03500059 0.008321839
-0.028201863 -0.023941819 -0.030033123 -0.0036386764 0.02268464 -0.024010735 -0.022896832 0.066653565
-0.034841295 -0.03943269 0.04239063 0.017562797 0.015781509 0.060621317 0.00039489276 0.0037842046
0.04714019 0.0053935703 0.009985225 0.02312516 -0.048585013 0.025586966 0.003626663 0.07290054
-0.021368407 0.011470238 -0.005932009 0.022556795 -0.08677178 0.059091605 0.12365319 0.010668499
-0.0020987934 0.062801205 0.11363455 0.008002851 -0.065596215 -0.035632752 0.071807444 0.021862106
-0.08630812 0.007539564 -0.0028759413 -0.024000205 -0.00034643526 -0.03154695 -0.027482288 -0.037930332
-0.035180993 0.09228192 0.08364614 -0.043955248 0.027803507 -0.1038406 0.0122488355 -0.025087677
0.024326054 -0.014411261 0.057937466 -0.01047201 -0.0020186813 0.15874009 0.06189974 0.18727392
-0.012599736 0.08005018 0.049481336 0.18396416 -0.030669738 -0.040216748 0.0023224894 0.10911356
0.012196393 0.06277471 -0.021364827 -0.026766619 -0.024942659 -0.04814904 -0.06909301 -0.011990346

fc3.bias f4 [2]
00000000: 00e1 56bd fb1d b6bc
-0.05246067 -0.022231093
